best_model.pt (torch, 987304 bytes, 4 tensors)

fc1.weight f4 [256, 942]
00000000: f84c e23a 0fa1 0d3b eba3 2dbd 7397 cb3b
00000010: 1332 e2bc df81 52bd ac97 6b3b 1651 6c3c
00000020: b431 8b3b 26fd e7aa f936 9d3a 0960 063e
00000030: af54 0d3c f1d5 8abd 898b a73c b1a2 b1bd
00000040: be9c 5cbd 5a94 babc c139 de3b 747a d7bc
00000050: 1eab 343b 96bc 30bd 9b3d 5fbd a65a 77bb
00000060: de11 553c 86dc 49bc 020e 6bbb b971 b63c
00000070: c04c 7b3c 6e0f 8731 ce6c 283c 392a ffbb
00000080: 6ad1 113c eb8b 423b 32f7 d7bb 8ef4 20bd
00000090: cb50 e9bc 4815 3238 e159 67bd dadd d03c
000000a0: 5826 5abb c8e9 55ba 4708 593c 2c24 8d3a
000000b0: b251 0ebd e26b 8cbc 2af8 05bd 5edf ad3c
000000c0: 63cf e0ba eaff 49bc 3e30 7abd 8b70 30bc
000000d0: 5872 443d f001 56bb 1c1b 29bc aba3 b73c
000000e0: 3834 753c 9db2 d3ba 5357 0cbd e645 cdbb
000000f0: 188a 063b b2c8 e0bb 3a8b 10bd 4aa0 783c
00000100: 5aa0 16ba 2b72 fc3c 1f9c 973c 88ce d739
00000110: 5ef2 ecbb fa3b ca3a 56dc 993b 4dd7 5cbd
00000120: 1ba6 163c 82d1 ba3c 103c e33a e9ae fd3b
00000130: 3994 053c 0c39 b43c 7869 9cbc cf46 0cbd
00000140: 7a07 933c 1b41 12bd 4161 523c ebbd 113b
00000150: 9e9f 443d 2372 3a3d d913 9427 7e83 1a3c
00000160: 186b 043d 824f 5d3c db20 25bd 7e86 9f3b
00000170: af9c 92b9 f2e6 8fbc 9c69 1d3c 6897 a2bd
00000180: 8245 313c 6767 cf39 3deb d23b e680 553d
00000190: 5888 d53b 7dec 313b 4032 88bd f43c 8c3c
000001a0: 4462 57bc 90da 3cb9 fc59 57bb ee26 403a
000001b0: 9cef 533e e30a 203d daab 363b 9b32 a1bd
000001c0: d9a6 723c 0f26 183c b1a8 4d3b 78e3 703d
000001d0: 7692 38ba 26ef b8bb 8480 2b3b 0fcb 19bd
000001e0: e2c3 8abc 2a4a 7bbc d5db 243d 2476 313d
000001f0: ed2e 713c fa41 03bd 1735 f9bc a852 5d3c
00000200: 3730 92bd b40e 8d39 cf42 eb3c 3a57 7c3c
00000210: c7cc de3b 8b00 8c3b f988 323c b3da b139
00000220: 7be4 f6bc 7543 c73c eb9b 61bd 20bb 5a3c
00000230: 66f8 c536 4b1a 88bd 5f79 103c 5b3e 6abd
00000240: 4eca 5a3c f1d9 063c 5bfa d53c 475d 973d
00000250: cd73 993a eaed d3bc 800e 243c de68 5139
00000260: 1ce0 95b8 5233 473c b31e 80bb 8016 dc3a
00000270: 77dd d63c 9d60 53bd af6e 4dbc 6091 d1bc
00000280: 0571 b9bc f4a5 063b 5371 1c3c 6b68 233a
00000290: a3cb 583b 07d7 a13d 7695 953d 3c01 2e3b
000002a0: d986 c539 bad0 97bc f55a d6bb 0884 d93b
000002b0: 07a8 0b3c ea87 57b9 2d2d c93b 399c ca3b
000002c0: 45fb e53b ff85 bc3c f176 9c3d 4869 9cbc
000002d0: 4c07 9f3b b50b a03d 8702 6f3b 2e09 c1bd
000002e0: f50e 6fbd 2fe7 2fbd acd0 77bd b19b c23b
000002f0: 0e31 443c 9690 fbbd f75f 6cbd 48d3 c23c
00000300: 633a 23bd 8915 213c b7c8 e0bb 6a99 fdbb
00000310: 3811 b43c 94fc 343d 7c0a 0c3d 3e67 b13b
00000320: e653 71bc b67d f23c 4df0 9abd 397c 86bb
00000330: 4d35 69bd 2ced 3cbc e9ad 0a3c 97a6 86bb
00000340: 6bbb 253d 3bdc 2437 1b16 1dbd 1cf7 6f3b
00000350: 2ab4 17bd 2aa2 de3b 6f73 76b9 81a8 bebc
00000360: 906a 0ebd 3362 113c deb0 163d 8434 f13a
00000370: f509 1c3b b9aa 53bc 9c98 1cbd 8207 343a
00000380: eb5e 813a 623e 203c ad27 b9bc 46d8 c03d
00000390: 1ba3 2a3e 006a bb3b 7034 3eba 7646 0d3d
000003a0: 6f87 683b ef76 a73d 2539 c33c 285a 2abd
000003b0: 306f 39ba 10ef 0525 bb7d 32bd 7c86 6e3d
000003c0: c11c 8e3c 00e8 4fbb 46f8 8ebc efad 16ba
000003d0: 03de 153c 73e4 843d 4915 9fbc 47d6 53bd
000003e0: e74d 52bd 0867 9cbc 9f74 cebb 0bab 833a
000003f0: 42b5 17bd c64d 013c 4d6a bb3b 8c6c 7fbd
0.001726537 0.002161089 -0.042392652 0.0062131225 -0.027611768 -0.051393386 0.0035948558 0.014423629
0.0042478684 -4.12095e-13 0.0011994533 0.13122572 0.008626147 -0.06779087 0.020452278 -0.08673609
-0.05386042 -0.022775818 0.006781787 -0.026303507 0.0027567814 -0.0431486 -0.05450211 -0.003774324
0.013004748 -0.012320643 -0.0035866504 0.022271024 0.015338123 3.9307713e-09 0.010279847 -0.0077870158
0.008900026 0.0029685448 -0.0065907473 -0.039295726 -0.028480908 4.2458327e-05 -0.0564822 0.025496412
-0.0033287015 -0.00081601413 0.013246602 0.0010768226 -0.03474588 -0.017141286 -0.03270737 0.021224674
-0.001715165 -0.012329081 -0.061081164 -0.01076902 0.04796061 -0.0032654963 -0.010321405 0.02241691
0.014966063 -0.0016151253 -0.034262966 -0.006264436 0.0020529088 -0.0068598622 -0.035289027 0.015174935
-0.000574594 0.030816158 0.018507062 0.00041161873 -0.007231041 0.0015429251 0.0046954555 -0.053916264
0.009194876 0.02280498 0.0017336626 0.007741798 0.008153015 0.021999858 -0.01909326 -0.034247216
0.017947901 -0.03570662 0.01284057 0.0022238444 0.048003785 0.045519006 4.109977e-15 0.009430764
0.032328695 0.013507726 -0.040314537 0.0048683276 -0.00027964028 -0.017566178 0.009607699 -0.07939035
0.010819795 0.00039559157 0.006436734 0.05212488 0.0065164976 0.0027149015 -0.066502094 0.017118908
-0.013145987 -0.00018010498 -0.0032860031 0.000733002 0.20696872 0.039072882 0.0027873428 -0.0787098
0.014810287 0.009286418 0.0031381065 0.05881068 -0.00070408673 -0.005643743 0.002616913 -0.037547167
-0.016939107 -0.015337506 0.04024871 0.04332556 0.014720661 -0.032045342 -0.030420823 0.013508476
-0.071381025 0.0002690457 0.02871838 0.015401656 0.0067993137 0.0042725257 0.010896915 0.00033923014
-0.030138245 0.024324158 -0.055080336 0.013350278 5.899975e-06 -0.0664564 0.008818 -0.057188373
0.013353897 0.008230672 0.026120355 0.07390838 0.0011707485 -0.025870282 0.010013223 0.0001997086
-7.146617e-05 0.012158232 -0.0039099096 0.0016791373 0.02622865 -0.05160581 -0.012538596 -0.025582016
-0.0226369 0.0020545693 0.009548503 0.0006233516 0.0033080361 0.07902341 0.07303898 0.0026551029
0.00037675237 -0.018532146 -0.0065416046 0.006638054 0.008523948 -0.0002055463 0.0061394186 0.006183174
0.007018479 0.023013113 0.07639874 -0.01909317 0.004853165 0.07814733 0.0036470012 -0.09425579
-0.058363874 -0.042945083 -0.06050174 0.00593897 0.011974586 -0.12283437 -0.057708707 0.023782387
-0.039850604 0.009831795 -0.0068598646 -0.0077392356 0.021980867 0.04418619 0.034189686 0.0054139188
-0.014729476 0.02960096 -0.07565365 -0.004104164 -0.056935597 -0.011531156 0.008464315 -0.0041092145
0.04046194 9.826438e-06 -0.03835116 0.0036615795 -0.037037052 0.006794234 -0.0002350339 -0.023273708
-0.034769595 0.00887351 0.036789767 0.0018402492 0.0023809646 -0.012919121 -0.038231477 0.0006867574
0.0009870207 0.009780498 -0.022601927 0.09416251 0.16663782 0.0057194233 -0.00072557386 0.034491025
0.0035481115 0.08176982 0.02383096 -0.041589886 -0.0007073758 1.1616909e-16 -0.043576937 0.058233723
0.017347695 -0.0031723976 -0.01745237 -0.0005747964 0.00914717 0.06488886 -0.01941933 -0.051718023
-0.051343825 -0.019092098 -0.0063005234 0.0010045482 -0.037038095 0.007892078 0.005719459 -0.062359378

fc1.bias f4 [256]
00000000: 7ac6 3a3e 8081 473e 1038 183e 3db0 143e
00000010: 8ab6 183e fa05 0a3e b35d ed3d da5d 6a3e
00000020: 1fd0 fe3d 1649 ea3d 311f 1c3e 7561 143e
00000030: 20b1 1d3e 17fc f03d f830 dc3d 0226 e43d
00000040: 1c78 093e 579a e2bb 5f37 313e 1755 343e
00000050: 31f1 b63e 4dd9 073e 9617 343e c40c b1bb
00000060: ab09 f03d 33af 2d3e a05a 213e 21bd 233e
00000070: 162f 353e 4cbe 023e 2444 4b3e ad2b 233e
00000080: f228 1f3e d2b1 503e f6f4 0b3e 7d92 e13d
00000090: 3b0d ca3d a29c 113e 947e 293e 781e 4b3e
000000a0: 8962 443e 3b1c 113e 1aba 813e b425 153e
000000b0: 1033 fe3d 7b62 703e ff14 113e 1eb4 0d3e
000000c0: 38a3 1b3e 0b7d 023e 7dbd 873e b257 0a3e
000000d0: 5b2d 9d3e 17b9 523e e1fb 1d3e 64b2 283e
000000e0: 43fc 2b3e 7638 2cbc 7ce1 263e 7a8e 033e
000000f0: 7ce4 133e 5dc3 ed3d d9ce e93d cffe 5bbb
00000100: 244b d7ba a87e 733e bf58 923e 3c5c 4c3e
00000110: e48e f73d f611 0b3e 1c4b 3c3e b6bb 7f3e
00000120: 3bdf 143e bef0 033e a48f 4e3e b86e 6c3e
00000130: 2f50 123e 2143 163e ef50 8b3e bdc4 863e
00000140: 059a 133e 9dff 413e 4621 083e 6794 0e3e
00000150: dc99 7e3e 2f91 003e 7f69 183e bd84 573e
00000160: e31f 233e f1bb ef3d 85eb 3b3e a380 3b3e
00000170: 403c e83d 4fd9 4b3e 0123 fe3d b70b fb3d
00000180: 5407 fe3d 32ae 923e bd20 493e 7d05 433e
00000190: 87df 573e e6d4 043e 7498 963e 9b1f c93d
000001a0: 3022 213e 1f0c fc3d 4818 3f3e 009d 083e
000001b0: c7bc 3e3e d412 993e 25cc 113e 784a bfbb
000001c0: 6fcb 223e 4b75 04ba e421 fc3d 0017 8d3e
000001d0: 0f51 2b3e de34 013e e4d5 1b3e 4075 2b3e
000001e0: 3a03 fa3d 0ab5 293e 6df9 67b9 e59b a93e
000001f0: b718 47bc 4b46 423e f3f4 123e b6cd 243e
00000200: e71b 353e e419 1e3e 98fc 043e 9541 133e
00000210: 644d d33d 0f77 413e 6af6 4e3e 45c3 1f3e
00000220: 5641 0c3e d122 283e 07cc 073e 0250 243e
00000230: d9ac 32bc 5dae f63d 097f 463e 3e87 213e
00000240: 8270 893e 66d2 0d3e 7a21 393e 9cac d33d
00000250: 5126 0c3e a630 15bc d1b8 173e 5bb4 143e
00000260: 9911 123e ca66 1a3e ddd1 0a3e a0dd fd3d
00000270: a170 283e c066 1e3e 1554 313e 746d ec3d
00000280: c1a6 913d d38c 103e b02b 463e 76a0 303e
00000290: bf23 443e 33e9 dd3d 0773 013e 6777 0c3e
000002a0: 21e7 0c3e e1be 273e 0148 183d a6b1 6c3e
000002b0: e2d5 293e d5b2 0e3e 0518 2d3e a373 233e
000002c0: c2ec 0b3e fc8c fa3d 1670 453e 58c0 0d3e
000002d0: 311d 39bc ed6e 2b3e 55ac 7d3e 1cdb 563e
000002e0: 3483 1e3e ec35 163e 853e 723e e8dd 143e
000002f0: b790 183e 8507 203e eb86 5c3e 5b7a d23d
00000300: 11be 523e 18be 493e 1eb6 153e ca31 0d3e
00000310: e473 993e 29be 2a3e 02a9 123e a8db 373e
00000320: b9ee 0c3e c053 413e 0e58 143e a666 bc3e
00000330: 1ab1 0d3e 43d1 f53d 3a44 923e a383 0a3e
00000340: 9286 823e 60da db3d 12e3 4e3e 5043 f53d
00000350: 34c5 41bc 1620 df3d 9834 e0bb e0ea f63d
00000360: d42e ab3d b846 243e 7173 e83d 6ff8 283e
00000370: 983e 373e 4f87 0e3e b140 113e 580b 1c3e
00000380: 896f 5c3e 4521 153e facf 113e 748a 063e
00000390: c83d 0b3e 2640 9b3e 4c1c 633e b71b 38bc
000003a0: 46d9 5a3e 4075 673e ac8b c63d 91b7 ff3d
000003b0: 03c4 053e c837 2d3e e81a 0a3e 9303 133e
000003c0: 2b31 5c3e 9a23 0f3e 6fa1 ae3e c9e0 9b3e
000003d0: 2297 023e 0fb2 353e 6d63 8f3e 427e 243e
000003e0: c9ad 063e b94b 193e 6f9f 5a3e 851f 853e
000003f0: 1133 213e fb9f 263e 4310 8e3e 7810 693e
0.18239775 0.19482994 0.14865136 0.14520355 0.14913383 0.13478842 0.11590137 0.22887364
0.1244204 0.11439721 0.15246274 0.14490302 0.15399599 0.11766832 0.107515275 0.11140062
0.13424724 -0.0069153714 0.17306279 0.17610584 0.3573089 0.13266487 0.17587122 -0.005403133
0.11720594 0.16961364 0.15757227 0.15990116 0.17693743 0.12767905 0.19850212 0.1593463
0.15542963 0.20380333 0.13667664 0.110142685 0.09865805 0.14219907 0.16552192 0.19835842
0.19178213 0.14170925 0.25337297 0.14565164 0.12412083 0.23475067 0.14168166 0.1383824
0.15198982 0.12743013 0.26511756 0.13510016 0.30698666 0.20578419 0.15428115 0.164743
0.16795449 -0.010511508 0.16296953 0.12847319 0.14442629 0.11609528 0.11416406 -0.0033568626
-0.0016425592 0.23778784 0.28583333 0.1995706 0.12087801 0.1358107 0.18388027 0.2497395
0.1453828 0.12884805 0.20171982 0.23089111 0.142884 0.14674045 0.27210185 0.26321974
0.14414223 0.18945165 0.13293943 0.13923799 0.2486338 0.12555383 0.14883994 0.2104673
0.15930133 0.11705769 0.18351562 0.1831079 0.11339617 0.19907115 0.1240902 0.12258094
0.124037415 0.28648525 0.19641395 0.19045062 0.21081363 0.1297184 0.29413188 0.098204814
0.15735698 0.123069994 0.18661606 0.13341141 0.186267 0.29897177 0.14238031 -0.005837735
0.15897916 -0.00050528784 0.123111516 0.2755661 0.1673014 0.12617823 0.15218312 0.16743946
0.12207647 0.16572967 -0.00022122795 0.3312675 -0.012151889 0.18972127 0.14351253 0.16094097
0.17686425 0.15439564 0.12986982 0.14380486 0.103174955 0.18893073 0.20211187 0.15601833
0.13696799 0.16419531 0.13261424 0.16046146 -0.010905468 0.12044976 0.19384398 0.15774247
0.2684365 0.13849792 0.18079177 0.10335657 0.13686492 -0.009105837 0.14816596 0.14521925
0.14264525 0.15078273 0.13556619 0.12395787 0.16449215 0.15468884 0.17317231 0.11544314
0.07111884 0.1411622 0.19352603 0.17248711 0.19154261 0.10835495 0.12641536 0.13717423
0.13760044 0.16381408 0.037178043 0.23114643 0.16585496 0.13935407 0.16903694 0.1596208
0.13664535 0.12233922 0.19281039 0.13842905 -0.011298464 0.16741534 0.2477277 0.20982021
0.15479738 0.14669007 0.23656662 0.14537776 0.14898954 0.15627868 0.21535842 0.10277244
0.20580317 0.19701421 0.14620253 0.13788524 0.2997123 0.16674103 0.14322284 0.17954886
0.1376294 0.18879604 0.14486715 0.36797065 0.1383709 0.12002804 0.28567678 0.13526778
0.25493294 0.10735011 0.20203808 0.119757295 -0.011826802 0.10894792 -0.006842207 0.120565176
0.08358541 0.16042602 0.11350144 0.1650102 0.17894971 0.13918804 0.14184834 0.15238702
0.21526922 0.14563473 0.14239493 0.13138753 0.13597786 0.3032238 0.22178763 -0.0112370765
0.21371946 0.22603321 0.09694609 0.124861844 0.13063054 0.1691581 0.13486826 0.14356832
0.21503131 0.13978425 0.3410754 0.30444935 0.12752965 0.17743705 0.28005543 0.16063789
0.13152231 0.14970292 0.21349882 0.2600061 0.15742137 0.16271965 0.27746782 0.22760189

fc2.weight f4 [19, 256]
00000000: 523b efbd 54a1 b93d 68f3 26be 7e3a ddbd
00000010: a079 38be e5bc c93b dd08 21be 08cc 2a3e
00000020: 2852 63bd 80ed 2cbe 4d44 aabd c8e4 60bd
00000030: 1244 ffbc 1780 05be c045 31be 5345 37be
00000040: 3ef0 a1bd daf7 2d34 524a f4bd ada4 49be
00000050: 2e92 afbe 1135 33be db44 4dbe 9447 06b7
00000060: 6c4f 14be 54b7 80be a5cb 82bc 1e3b 75bd
00000070: ba86 2fbe 8ef8 8abd 5fd9 263e b50b 1fbe
00000080: b963 a0bd 607c 13be 18e0 87bd 0396 04be
00000090: 544b 10bd c4a6 14bd 4e0e 03be 77ca 9cbe
000000a0: 412b a4bd c495 03be d031 9f3d 923a 31be
000000b0: 72a7 2dbd e7bd 91be e193 c9bd d02d b7bc
000000c0: b5e5 1abe 773e 11be 4ffb ebbc 3130 89bd
000000d0: e0a1 d9bd 572b 12be 9b5d 28be 8c11 82bd
000000e0: bfe4 35bd 2bce 7535 2a4b 53be 8ba4 21be
000000f0: d9ec 99bd e511 20be 8da7 10bd b662 8123
00000100: 6496 f53a 55ae c33c 9e26 003e 8192 d8bc
00000110: eb41 bf3d 959d 0ebe 1213 e4bd e516 123e
00000120: e8ae 73be ec4a 643c 1235 76be af97 74be
00000130: e30f 28be 9736 fbbd 76b1 c5bd c6db 97be
00000140: 5323 f1bd a2c1 74be 1328 a8bd e7c9 dfbd
00000150: 5864 1abe 311e 33be ad9c 10be 06db a3be
00000160: a9d0 fcbd e0d3 babd aef2 923c 2c40 52be
00000170: 917a 07be 1e7a 75be 2f3d 90bd dccb 08be
00000180: 670d 22be bf8a 27bd 47e3 54bd 222c 3abe
00000190: bf45 99be 7acb ddbc 9f19 81bd 0e4c 73bd
000001a0: e9c0 b6bd 2b3d 26bc c389 87be 0851 01be
000001b0: d4cd 82be 3a86 3abe a26f 85bd c30b 0eb6
000001c0: 3144 24be e2c2 c92d b758 1abe 8e0e 70be
000001d0: 2212 713c 6086 babd 25ba 2bbe 9f41 17be
000001e0: c74d cebd 243c b4bc 2761 f820 518c 55be
000001f0: 2f54 5535 eeb5 6ebe 0e57 f1bd 8178 85bd
00000200: 998e 6dbe e28a b7bd 9755 8abe 0ad1 53bd
00000210: 2901 13be d1be 22be 3ae6 48be a5b2 f2bd
00000220: e7cd 6cbd 9e78 b43e bac1 1dbe 6545 42be
00000230: fe2a bb35 1dd4 1dbe 567e 99bd a71e 4abe
00000240: c423 b8be a5bd 7bbe 9190 32bb a7ad 1cbe
00000250: 684b 87bd 0ae2 f629 dd47 36be cf40 24be
00000260: 370d 04be a2c7 093e cb8e 043d 0273 30be
00000270: 28bb 0abd e4e8 01be a77b d2bd 83e3 39be
00000280: 37a8 bfbd be61 50be d593 7abe b78c ce3b
00000290: 52da 75bd 666a 24be 9596 9bbd b814 21bd
000002a0: f14f 76be f93e c33d ead7 643d 4426 043e
000002b0: 9e35 973c 6c0a 623c a214 62be fcd2 1c3e
000002c0: 67ed 2bbd 2e43 14be 8d48 48be ef2b 1abe
000002d0: 0214 dfb6 1a3f 76be 312b 66be 461e 5fbc
000002e0: ca9b a2bd 26a1 0ebe a561 8dbe 8bf4 313d
000002f0: 96b7 993a 45ab 87bc 8107 b3be 6995 f9bd
00000300: e742 99be ffe3 d7be 8093 22bc c210 e03b
00000310: d537 58bd b221 eabd 5d96 053d e044 03be
00000320: 9b5e 3abd 74cb c6bd 620f 24be 1cb0 583e
00000330: 3a6b d3bd 92a6 c8b8 63e8 b2be 02a1 17be
00000340: 76ee b2be b200 86bc 8d9c 3abe d4cd bfbc
00000350: 8da3 e038 513e c6bc 7c6c 88b8 8b6d 0cbc
00000360: 2387 a7bd dc99 c5bb d186 70bd 3c99 9dbc
00000370: 731a d83d 72ac ecbd 6285 24be 8e65 b3bd
00000380: b600 933e 2829 f1bd 589f fcbd d547 37be
00000390: df91 6bbe 1f23 a4be cb7a 7abc d6d7 1d3a
000003a0: 1a20 b3be a5d8 82be 2f3a ca3c 8471 16bd
000003b0: 383b 7bbe d707 54bc 8afa 1ebe bb01 79bd
000003c0: 5538 7bbe e984 5ebe 1ca1 833d 651a 4ebe
000003d0: 93c0 ebbd 149d 2abe bbd6 0f3e 854b 0bbd
000003e0: 9126 afbc dddd 153d 682e 89be 6b71 99be
000003f0: 20c0 01bd 6d01 80be d8b3 23be 1c63 bcbd
-0.11681236 0.09063974 -0.1630379 -0.10802172 -0.18015146 0.006156551 -0.15726037 0.16679394
-0.055498272 -0.16887474 -0.083138086 -0.054905683 -0.031160388 -0.13037144 -0.17311764 -0.17897539
-0.07907151 1.6202048e-07 -0.11928238 -0.19691725 -0.34291214 -0.17500712 -0.20045798 -8.003688e-06
-0.14483422 -0.25139868 -0.015966246 -0.05987083 -0.17141238 -0.06785689 0.16293858 -0.1553181
-0.078315206 -0.14402914 -0.06634539 -0.1294785 -0.03522809 -0.036291853 -0.12798426 -0.30623218
-0.080160625 -0.128501 0.07773173 -0.17307499 -0.042396016 -0.28465196 -0.09842659 -0.022360712
-0.15126689 -0.14183985 -0.028806357 -0.06698645 -0.10626578 -0.14274345 -0.16441958 -0.06351003
-0.044407602 9.1569626e-07 -0.20634142 -0.15785424 -0.07515878 -0.15631826 -0.03531604 1.4028014e-17
0.0018736837 0.023886839 0.12514731 -0.026437046 0.09338745 -0.139273 -0.1113645 0.14266546
-0.2379719 0.013933878 -0.24043682 -0.23885988 -0.1641231 -0.122662716 -0.096529886 -0.2965986
-0.11774316 -0.2390199 -0.082107686 -0.10927182 -0.1507734 -0.17491986 -0.14122267 -0.3200304
-0.12344486 -0.09122443 0.017937984 -0.20532292 -0.13230349 -0.23972365 -0.0704292 -0.13359016
-0.15825425 -0.040903803 -0.05197456 -0.18180898 -0.29936025 -0.027074564 -0.06303715 -0.059398703
-0.089235134 -0.0101464195 -0.2647229 -0.12628567 -0.2554766 -0.18215266 -0.06515433 -2.1166495e-06
-0.16041638 2.29376e-11 -0.15072905 -0.23443052 0.014713796 -0.09107661 -0.16770227 -0.14771126
-0.100734286 -0.022001334 4.2077124e-19 -0.20854308 7.9471187e-07 -0.23311588 -0.117841825 -0.06517125
-0.23198928 -0.08962037 -0.27018425 -0.051713027 -0.14355911 -0.15893103 -0.19619074 -0.1185048
-0.05781355 0.35248274 -0.15405932 -0.18971784 1.3945098e-06 -0.15412946 -0.074948 -0.19738255
-0.35964787 -0.24584062 -0.0027246813 -0.15300618 -0.066061795 1.0963806e-13 -0.17800851 -0.16040348
-0.12895666 0.1345506 0.03236274 -0.17231372 -0.033869892 -0.12686497 -0.10277491 -0.18153195
-0.09358256 -0.20349786 -0.24470456 0.0063033956 -0.06002266 -0.16056213 -0.075970806 -0.0393264
-0.24053933 0.095334955 0.055869974 0.12905222 0.018458184 0.01379643 -0.22078183 0.15314859
-0.04197445 -0.14478752 -0.19558926 -0.15055822 -6.648247e-06 -0.24047509 -0.22477414 -0.013618058
-0.07939871 -0.13928661 -0.2761356 0.043446105 0.0011727687 -0.01656116 -0.34966663 -0.12186701
-0.29933855 -0.42166135 -0.009922862 0.006837935 -0.05278762 -0.11432208 0.0326141 -0.12819242
-0.04550038 -0.09706774 -0.16021493 0.2116093 -0.10323186 -9.567769e-05 -0.34942922 -0.14807513
-0.34947556 -0.016357753 -0.18223782 -0.023413576 0.00010711616 -0.024199637 -6.505192e-05 -0.008571039
-0.08180072 -0.0060303044 -0.05872232 -0.019238107 0.1055192 -0.11556329 -0.16066507 -0.087596044
0.2871148 -0.11775428 -0.1233508 -0.17898495 -0.23004864 -0.32058045 -0.015288065 0.0006021237
-0.3498543 -0.25555912 0.024685947 -0.03672935 -0.24534309 -0.012941322 -0.1552526 -0.060792666
-0.24533208 -0.21730389 0.064272135 -0.20127256 -0.1151134 -0.16661483 0.14046757 -0.034007568
-0.021380695 0.03658854 -0.26793218 -0.29969344 -0.031677365 -0.25001088 -0.15986574 -0.09198591

fc2.bias f4 [19]
00000000: f983 e4bd d330 1abd 6586 9bbd c240 6dbd
00000010: 80e3 edbd d1f4 37bd ff86 9fbc ce86 64bd
00000020: bf5c f7bc 3b11 0ebe 3668 d2bd 711e 98bd
00000030: f01f 9dbd 663d 0abe b1a8 c4bc 5c38 05be
00000040: 9776 04be 7d26 08be a0fc cebd
-0.11157984 -0.03764422 -0.07593993 -0.057923086 -0.11615658 -0.04491121 -0.01947355 -0.055792622
-0.030195592 -0.1387376 -0.10273783 -0.07427681 -0.07672107 -0.13499984 -0.02400622 -0.1300978
-0.12935863 -0.13295932 -0.10106778
